name: "CIFAR100_nin"
layer {
  name: "cifar"
  type: "Data" 
  top: "data"
  top: "label"
  transform_param {
    mirror: true
    crop_size: 26
  }
  data_param {
	source: "/storage/datasets/cifar-100/cifar_train"
	backend: LMDB
    batch_size: 128
  }
  include: { phase: TRAIN }
}
layer {
  name: "cifar"
  type: "Data"
  top: "data"
  top: "label"
  transform_param {
    mirror: false
    crop_size: 26
  }
  data_param {
	source: "/storage/datasets/cifar-100/cifar_test"
	backend: LMDB
    batch_size: 100
  }
  include: { phase: TEST }
}
layer {
  name: "conv1"
  type: "Convolution" 
  bottom: "data"
  top: "conv1"
  param {
	  lr_mult: 1
	  decay_mult: 1
  }
  param {
	  lr_mult: 2
	  decay_mult: 0
  }
  convolution_param {
    num_output: 192
    pad: 5
    kernel_size: 5
    weight_filler {
      type: "gaussian"
      std: 0.05
    }
    bias_filler {
      type: "constant"
    }
  }
}
layer {
  name: "relu1"
  type: "ReLU"
  bottom: "conv1"
  top: "conv1"
}
layer {
  name: "cccp1"
  type: "Convolution" 
  bottom: "conv1"
  top: "cccp1"
  param {
	  lr_mult: 1
	  decay_mult: 1
  }
  param {
	  lr_mult: 2
	  decay_mult: 0
  }
  convolution_param {
    num_output: 160
    group: 1
    kernel_size: 1
    weight_filler {
      type: "gaussian"
      std: 0.05
    }
    bias_filler {
      type: "constant"
      value: 0
    }
  }
}
layer {
  name: "relu_cccp1"
  type: "ReLU"
  bottom: "cccp1"
  top: "cccp1"
}
layer {
  name: "cccp2"
  type: "Convolution" 
  bottom: "cccp1"
  top: "cccp2"
  param {
	  lr_mult: 1
	  decay_mult: 1
  }
  param {
	  lr_mult: 2
	  decay_mult: 0
  }
  convolution_param {
    num_output: 96
    group: 1
    kernel_size: 1
    weight_filler {
      type: "gaussian"
      std: 0.05
    }
    bias_filler {
      type: "constant"
      value: 0
    }
  }
}
layer {
  name: "relu_cccp2"
  type: "ReLU"
  bottom: "cccp2"
  top: "cccp2"
}
layer {
  name: "pool1"
  type: "Pooling"
  bottom: "cccp2"
  top: "pool1"
  pooling_param {
    pool: MAX
    kernel_size: 3
    stride: 2
  }
}
layer {
  name: "drop3"
  type: "Dropout"
  bottom: "pool1"
  top: "pool1"
  dropout_param {
    dropout_ratio: 0.5
  }
}
layer {
  name: "conv2"
  type: "Convolution" 
  bottom: "pool1"
  top: "conv2"
  param {
	  lr_mult: 1
	  decay_mult: 1
  }
  param {
	  lr_mult: 2
	  decay_mult: 0
  }
  convolution_param {
    num_output: 192
    pad: 2
    kernel_size: 5
    weight_filler {
      type: "gaussian"
      std: 0.05
    }
    bias_filler {
      type: "constant"
    }
  }
}
layer {
  name: "relu2"
  type: "ReLU"
  bottom: "conv2"
  top: "conv2"
}
layer {
  name: "cccp3"
  type: "Convolution"
  bottom: "conv2"
  top: "cccp3"
  param {
	  lr_mult: 1
	  decay_mult: 1
  }
  param {
	  lr_mult: 2
	  decay_mult: 0
  }
  convolution_param {
    num_output: 192
    group: 1
    kernel_size: 1
    weight_filler {
      type: "gaussian"
      std: 0.05
    }
    bias_filler {
      type: "constant"
      value: 0
    }
  }
}
layer {
  name: "relu_cccp3"
  type: "ReLU" 
  bottom: "cccp3"
  top: "cccp3"
}
layer {
  name: "cccp4"
  type: "Convolution"
  bottom: "cccp3"
  top: "cccp4"
  param {
	  lr_mult: 1
	  decay_mult: 1
  }
  param {
	  lr_mult: 2
	  decay_mult: 0
  }
  convolution_param {
    num_output: 192
    group: 1
    kernel_size: 1
    weight_filler {
      type: "gaussian"
      std: 0.05
    }
    bias_filler {
      type: "constant"
      value: 0
    }
  }
}
layer {
  name: "relu_cccp4"
  type: "ReLU"
  bottom: "cccp4"
  top: "cccp4"
}
layer {
  name: "pool2"
  type: "Pooling" 
  bottom: "cccp4"
  top: "pool2"
  pooling_param {
    pool: AVE
    kernel_size: 3
    stride: 2
  }
}
layer {
  name: "drop6"
  type: "Dropout"
  bottom: "pool2"
  top: "pool2"
  dropout_param {
    dropout_ratio: 0.5
  }
}
layer {
  name: "conv3"
  type: "Convolution" 
  bottom: "pool2"
  top: "conv3"
  param {
	  lr_mult: 1
	  decay_mult: 1
  }
  param {
	  lr_mult: 2
	  decay_mult: 0
  }
  convolution_param {
    num_output: 192
    pad: 1
    kernel_size: 3
    weight_filler {
      type: "gaussian"
      std: 0.05
    }
    bias_filler {
      type: "constant"
    }
  }
}
layer {
  name: "relu3"
  type: "ReLU"
  bottom: "conv3"
  top: "conv3"
}
layer {
  name: "cccp5"
  type: "Convolution" 
  bottom: "conv3"
  top: "cccp5"
  param {
	  lr_mult: 1
	  decay_mult: 1
  }
  param {
	  lr_mult: 2
	  decay_mult: 0
  }
  convolution_param {
    num_output: 192
    group: 1
    kernel_size: 1
    weight_filler {
      type: "gaussian"
      std: 0.05
    }
    bias_filler {
      type: "constant"
      value: 0
    }
  }
}
layer {
  name: "relu_cccp5"
  type: "ReLU"
  bottom: "cccp5"
  top: "cccp5"
}
layer {
  name: "cccp6"
  type: "Convolution"
  bottom: "cccp5"
  top: "cccp6"
  param {
	  lr_mult: 0.1
	  decay_mult: 1
  }
  param {
	  lr_mult: 0.1
	  decay_mult: 0
  }
  convolution_param {
    num_output: 100
    group: 1
    kernel_size: 1
    weight_filler {
      type: "gaussian"
      std: 0.05
    }
    bias_filler {
      type: "constant"
      value: 0
    }
  }
}
layer {
  name: "relu_cccp6"
  type: "ReLU"
  bottom: "cccp6"
  top: "cccp6"
}
layer {
	name: "super_category"
	type: "SuperCategoryFM"
	bottom: "cccp6"
	top: "layer1"
	top: "layer2"
	top: "layer3"
	top: "layer4"
	eltwise_param {
		operation : MIN
	}
  super_category_param {
	  file_name : "super_category.prototxt"
  }
}
layer {
  name: "super_category_label"
  type: "SuperCategoryLabel"
  bottom: "label"
  top: "label_1"
  top: "label_2"
  top: "label_3"
  top: "label_4"
  super_category_param{
	  file_name : "super_category.prototxt"
  }
} 
layer {
	name: "DiffOver"
	type: "SuperCategoryFMPost"
	eltwise_param {
		operation : MINUS
	}
	bottom: "layer1"
	bottom: "layer2"
	bottom: "layer3"
	bottom: "layer4"
	top: "layer1_diff"
	top: "layer2_diff"
	top: "layer3_diff"
	top: "layer4_diff"
	super_category_param{
	    file_name : "super_category.prototxt"
	}
}
layer {
  name: "pool_layer1"
  type: "Pooling" 
  bottom: "layer1"
  top: "pool_layer1"
  pooling_param {
    pool: AVE
    kernel_size: 8
    stride: 1
  }
}
layer {
  name: "pool_layer1_diff"
  type: "Pooling" 
  bottom: "layer1_diff"
  top: "pool_layer1_diff"
  pooling_param {
    pool: AVE
    kernel_size: 8
    stride: 1
  }
}
layer {
  name: "pool_layer2"
  type: "Pooling" 
  bottom: "layer2"
  top: "pool_layer2"
  pooling_param {
    pool: AVE
    kernel_size: 8
    stride: 1
  }
}
layer {
  name: "pool_layer2_diff"
  type: "Pooling" 
  bottom: "layer2_diff"
  top: "pool_layer2_diff"
  pooling_param {
    pool: AVE
    kernel_size: 8
    stride: 1
  }
}
layer {
  name: "pool_layer3"
  type: "Pooling" 
  bottom: "layer3"
  top: "pool_layer3"
  pooling_param {
    pool: AVE
    kernel_size: 8
    stride: 1
  }
}
layer {
  name: "pool_layer3_diff"
  type: "Pooling" 
  bottom: "layer3_diff"
  top: "pool_layer3_diff"
  pooling_param {
    pool: AVE
    kernel_size: 8
    stride: 1
  }
}
layer {
  name: "pool_layer4"
  type: "Pooling" 
  bottom: "layer4"
  top: "pool_layer4"
  pooling_param {
    pool: AVE
    kernel_size: 8
    stride: 1
  }
}
layer {
  name: "pool_layer4_diff"
  type: "Pooling" 
  bottom: "layer4_diff"
  top: "pool_layer4_diff"
  pooling_param {
    pool: AVE
    kernel_size: 8
    stride: 1
  }
}
layer {
  name: "loss1"
  type: "SoftmaxWithLoss"
  bottom: "pool_layer1"
  bottom: "label_1"
  top: "loss1"
  loss_weight: 0.1
}
layer {
  name: "loss1_diffloss"
  type: "SoftmaxWithLoss"
  bottom: "pool_layer1_diff"
  bottom: "label_1"
  top: "loss1_diffloss"
  loss_weight: 0.05
}
layer {
  name: "loss2"
  type: "SoftmaxWithLoss"
  bottom: "pool_layer2"
  bottom: "label_2"
  top: "loss2"
  loss_weight: 0.1
}
layer {
  name: "loss2_diffloss"
  type: "SoftmaxWithLoss"
  bottom: "pool_layer2_diff"
  bottom: "label_2"
  top: "loss2_diffloss"
  loss_weight: 0.05
}
layer {
  name: "loss3"
  type: "SoftmaxWithLoss"
  bottom: "pool_layer3"
  bottom: "label_3"
  top: "loss3"
  loss_weight: 0.3
}
layer {
  name: "loss3_diffloss"
  type: "SoftmaxWithLoss"
  bottom: "pool_layer3_diff"
  bottom: "label_3"
  top: "loss3_diffloss"
  loss_weight: 0.1
}
layer {
  name: "loss4"
  type: "SoftmaxWithLoss"
  bottom: "pool_layer4"
  bottom: "label_4"
  top: "loss4"
  loss_weight: 0.5
}
layer {
  name: "loss4_diffloss"
  type: "SoftmaxWithLoss"
  bottom: "pool_layer4_diff"
  bottom: "label_4"
  top: "loss_diff"
  loss_weight: 0.2
}
layer {
  name: "accuracy"
  type: "Accuracy"
  bottom: "pool_layer4"
  bottom: "label"
  top: "accuracy"
  accuracy_param: {
	  top_k : 1
  }
}
layer {
  name: "accuracy_supercategory"
  type: "Accuracy"
  bottom: "pool_layer3"
  bottom: "label_3"
  top: "accuracy_supercategory"
}
